util/save/model_save-PPO.pt (torch, 41601 bytes, 11 tensors)

weight f4 [64, 2]
00000000: 6b5e 3b3d 4802 40be c1ea 92be f948 663e
00000010: a95a 0c3f fa7d 73bd 1a3d 86be d89c ae3e
00000020: a1c8 5dbe 90b6 923e e4a3 223f 73b9 b1bd
00000030: e9c5 15bf 5302 5bbf c1e7 da3e 8fb0 143f
00000040: e2e3 be3e fe56 82be f30e 8bbc 906b d3be
00000050: 8b34 bbbe a2a5 bbbe b029 243e 2a89 c8be
00000060: 5917 df3e 2b90 7bbe c458 50bf 5802 c73d
00000070: 89d9 babe ca82 58bf da5f d73e 6694 edbb
00000080: d210 023f 5f02 463f cefb 1f3e 2ec5 7b3e
00000090: cf65 1a3f 0d9c 433c b560 9e3e a6ef c6be
000000a0: aa5b cfbe 777b e33e 6890 fdbe 610e f63e
000000b0: 4faa 0bbf 2b10 b73d da65 96be eb5b f5bd
000000c0: 599d e33e 0fb2 63bd 2a3c 433f cda8 d23e
000000d0: 62bf 2fbf 43db d8bb e003 07bf ecde 56bf
000000e0: c783 0bbf 25a4 ce3e 85e2 073f 6086 f13e
000000f0: f288 0f3e e993 07bf 7d6c 17bf 7cb6 143f
00000100: a334 123f 408e c6be 1393 fc3e c632 03bf
00000110: 51a0 18be d097 29be 376c a0be 1901 533e
00000120: a82c a63e af93 66be 3081 97be 6c24 813e
00000130: 0709 663d 8341 27bf 975d 06bf f155 1f3f
00000140: eee9 07bf 9524 9a3e 1246 d03e 7450 fabe
00000150: f3c5 ba3e cd17 95be ce25 983e 185a bdbd
00000160: adc4 01bf b2f3 b5bd 2447 2cbf 72b1 4ebf
00000170: 0687 f5be f9b4 093f 69d7 2f3d 03f7 08be
00000180: 8015 c13e e9ad 4abe d0c8 a1be d7fe d23e
00000190: a42b f63e 67c8 88be 9420 27bf 8b26 6ebe
000001a0: 5bfd 8ebe ea59 0a3e 03fc aabe 415c c53e
000001b0: 2f95 ef3d b57a 88bd c908 923e e115 423e
000001c0: f0fb dd3e 3c21 02bf b232 393f 4750 0c3f
000001d0: 5954 1a3f 5ae3 21bf b18b 1c3f d46d b83c
000001e0: c1ca dcbe 02a0 d6bc 95c1 423f ab72 93bc
000001f0: 1e5f 9b3d e85a ecbe dea8 443d 2da9 b43e
0.04574434 -0.1875087 -0.28694728 0.22488774 0.54825836 -0.059446312 -0.26218492 0.34104037
-0.21658565 0.2865491 0.6353133 -0.0867795 -0.5850511 -0.8555042 0.4275494 0.5808191
0.37283236 -0.25456995 -0.016974902 -0.41293 -0.36563525 -0.36649805 0.16031528 -0.39167148
0.435725 -0.24566714 -0.81385446 0.09717244 -0.3649409 -0.8457457 0.42065316 -0.0072503565
0.50806916 0.7734737 0.156234 0.24586937 0.603116 0.011939061 0.30933157 -0.38854712
-0.40499622 0.44430134 -0.49524236 0.48057845 -0.54556745 0.08938631 -0.29374582 -0.119804226
0.44455984 -0.05558973 0.7626368 0.4114441 -0.686514 -0.006617935 -0.5274029 -0.839339
-0.5449795 0.40359607 0.53080016 0.47172832 0.14017084 -0.5296007 -0.59149915 0.5809095
0.5711157 -0.38780403 0.4933096 -0.5124935 -0.14904906 -0.16561818 -0.3133256 0.20605887
0.32455945 -0.22517274 -0.2959075 0.252231 0.056160953 -0.6533434 -0.52486557 0.6224051
-0.53091323 0.30106035 0.4067846 -0.48889506 0.36479148 -0.2911972 0.29716343 -0.092457
-0.5069073 -0.08884372 -0.6729605 -0.8073951 -0.47954577 0.5379177 0.04293004 -0.13375477
0.37711716 -0.19792904 -0.3159852 0.41210052 0.4808017 -0.26715395 -0.65284085 -0.2325689
-0.2792767 0.13510862 -0.33395395 0.38546947 0.116983764 -0.066640295 0.28522328 0.18953659
0.43356276 -0.5083196 0.7234298 0.54809994 0.60284954 -0.63237536 0.6115065 0.022513308
-0.4312344 -0.026199345 0.7607663 -0.017999014 0.075865015 -0.46163106 0.048012607 0.3528532

bias f4 [64]
00000000: 162a 15bf 72fd 00bf 5cc0 ac3e a581 193f
00000010: 895c d03e a779 853d dfe0 0c3f 6341 303f
00000020: 2b88 823e 492d ecbe 9046 3b3e 923a 8cbe
00000030: 9747 ffbd c749 ff3e 8946 f5bd 6c9c 98bb
00000040: 609a 683e 9a42 083e 7a29 793e fff9 213f
00000050: 27e5 83bd 6252 123f 6287 54be feb8 89be
00000060: 0f26 d13c 6666 b63d d71c 533f 5aae a6be
00000070: 34e8 fcbe abe7 3a3d fa1b eebe 9a86 fd3e
00000080: 75ca 1a3f 08a1 1fbf 32af 16bf 9dae b0be
00000090: 3922 b73e 7d45 04bf 7ee3 e6be 8f3f 38bf
000000a0: ab19 0d3f 4d25 ba3e b1b7 2f3f e599 25bf
000000b0: ef46 013f 5ed5 34be 632d 973d 22d6 013e
000000c0: 8cf2 6abe 3c71 38bf 8e23 9e3d b6bc 17bf
000000d0: 6d37 843d e692 efbb f44d 0e3f 10d6 17bf
000000e0: f845 253f efbc 2f3f 4837 d8be 1375 05bf
000000f0: 73cf 74bd 0950 58bf c0e6 13bf 32a9 c4be
-0.58267343 -0.50386727 0.3374051 0.59963447 0.406956 0.06517344 0.55030626 0.6884977
0.25494513 -0.461283 0.18288636 -0.27388436 -0.124648266 0.49860975 -0.11976344 -0.004657319
0.2271514 0.13306656 0.24332228 0.6327209 -0.06440192 0.57156956 -0.2075477 -0.2689895
0.025530843 0.0890625 0.8246588 -0.32554895 -0.49395907 0.045631092 -0.4650572 0.49516755
0.60465175 -0.6235509 -0.58861077 -0.3450822 0.35768297 -0.5166853 -0.45095438 -0.7197198
0.5511729 0.36356583 0.68639666 -0.6468795 0.5049886 -0.17659518 0.07381704 0.12679341
-0.22944087 -0.7204778 0.07721625 -0.59272325 0.06455884 -0.007311213 0.555877 -0.5931101
0.6455989 0.68647665 -0.42229676 -0.52131766 -0.05976815 -0.84497124 -0.5777397 -0.38410336

weight f4 [64, 64]
00000000: 25e4 62bd 0403 473e a96b 6b3d d7f3 0dbe
00000010: 98df 563c cf9e b0bc 41e4 f63d e661 3bbd
00000020: 58ef 0fbe 3d63 c93d 825a 8f3c 69b9 4e3d
00000030: 7503 8cbd 4743 f23b c228 b6bd 7f4a 3ebd
00000040: 0941 cdbd 1939 623d 6d07 0c3d 7973 11bd
00000050: 4319 943d 6834 1abb 8a9a b73d 5d54 5ebd
00000060: bcc6 c9bc 5493 6ebb d8eb 30be e533 e43d
00000070: 3ac8 433e b3bd 6aba ff40 153d 49a9 cdbd
00000080: 0ba7 fabd 9391 b73c ea98 df3d bdd9 593e
00000090: 0511 06be 61c2 803e a6e4 113d e8a8 543d
000000a0: 2e73 c23d 8edf e1bd a970 59be df08 15be
000000b0: 89b7 01be 59d2 bc3d 13ca bbbd 9c94 3fbc
000000c0: 75ac d3bd 0778 d63d 35ac 50be ffe8 e6bc
000000d0: 81d1 b83d e810 99bd 34d3 96bd c0c5 e73d
000000e0: ba46 20bc 4a65 353b 84ba 7abd 1c99 bb3d
000000f0: d275 5d3c 855d 303d c497 dc3d 3761 cc3d
00000100: fc34 883d 17d0 17be 7aad debc 2a11 953d
00000110: e4a8 8e3d 7e91 c83d 28d7 bebc 8336 bcbd
00000120: 01f5 0b3e c4d3 ffbd 5424 15bd da8f c1bc
00000130: d55e f1bd 6360 c2bd aa63 11bd 41a1 363d
00000140: 0562 71bd 66ed abbd 0759 2d3d 284a 293e
00000150: a8bc 0bbe 42fe 50bd 8461 8cbd 24bd c3bd
00000160: be11 1dbd 8692 fa3c 0d9c b0bd b3f1 debd
00000170: 87c6 eabd ad53 9ebd d9e3 d9bd 4473 03be
00000180: db0e 7b3d d959 0b3e da2c 3d3c eae6 bcbd
00000190: fd5a abbd 007d 2bbe 3497 993d 50c6 7fbe
000001a0: c22a e83d fb80 543e 0e28 88bb 6a3d 8a3b
000001b0: 0a30 7b3c 1f90 adbd 3809 493d c84b b03d
000001c0: a946 0bbd 25e9 4cbe b65e d13d 6f75 eabd
000001d0: d5db 083e a9f4 27be b071 eb3b c16c c93c
000001e0: 0e97 143e f862 c1bd 432a 8ebb 6b85 f13d
000001f0: 01b4 01bd e4ef 103e 127f a13c dd66 d2bd
00000200: 75af b63d 50ca 223e c13a d43c 1d0c 16bd
00000210: b279 93bc 71bf abbc 86c8 023e 5059 b83d
00000220: db8e f9bb 787a b6bd e15a 34bd 3444 bebd
00000230: 1f2d b03c ec96 8a3d 4831 333d f156 723d
00000240: 0b4b f7bb da4b cabd 3dd4 ae3c c6da 0bbe
00000250: 4ac6 333e a90e 073d da18 483d 3f60 cc3d
00000260: 7047 2d3d b143 c83d e296 c9bd bcdb f33d
00000270: 55cb ba3d d211 81bd 494e 843d 65a8 f23d
00000280: 4d13 5fbe 79cc b73d da0e 8abd 0168 f43c
00000290: 78fd a8bd 839f 513e 6b3f 0c3e 92d7 5a3d
000002a0: 2a01 ba3d f8eb 6bbd fcc0 57bd 4e94 fe3c
000002b0: cdd2 723d ef33 7d3d e077 b1bc 5c4f 903d
000002c0: cbea 4ebd 4e3c 6b3c ef67 a5bd b913 813c
000002d0: 35b6 113e 7dc1 2fbd 48f6 f9bd 37c3 023d
000002e0: e2ec e7bd bb1d 51bd 761c 1f3d 65d4 a1bd
000002f0: d1d1 7c3d beec 453d b39b 5d3c 83bf f7bc
00000300: ce87 f03d 327b 213e 2d7d 9cbd 0545 c3bc
00000310: 6e50 eebd e2df 723d 45f8 883d 263c c6bd
00000320: 979e 01be 4ec3 88bc 81c7 803d 00cd f03d
00000330: bee8 47be 27e5 bd3c ba25 f4bc c350 e4bd
00000340: f637 503d 18f6 6cbd b6e7 04bd cc12 2cbe
00000350: 2af8 10bc 86b6 23bd 3f2d 043d dce9 06bd
00000360: 73d3 a33d f955 e43c dce8 be3d 8aa9 ddbb
00000370: b4bc 613e c6ac ccbc 6aea 7a3d a25b 093d
00000380: 77ba 7bbe d891 ab3d 94f0 c8bd 2ea4 543d
00000390: adbb 3bbe 925f 633e c431 813d a11d 0d3e
000003a0: 4862 203e 7126 29bd e3fb cbbc c892 9abd
000003b0: f979 f4bd 4bd0 cabd 6279 c2bc ca10 d53d
000003c0: f337 a9bd 2f7f 993d bc67 c3bc 4668 a93d
000003d0: ee0f 813e 5b8d a33d 1746 ef3c 28ba adbd
000003e0: af4e a3bd 5d24 b23d 79a5 033c d428 453d
000003f0: 804b 91ba fa42 923d b343 af3d 38bc 043e
-0.055393357 0.19434744 0.05747572 -0.13862549 0.013114832 -0.0215601 0.12055255 -0.04574766
-0.14056146 0.09833381 0.017499212 0.05046979 -0.06836597 0.007393274 -0.08894493 -0.046457764
-0.1002217 0.055230234 0.03418677 -0.035510514 0.07231381 -0.0023529772 0.08965023 -0.054279674
-0.024630897 -0.0036403732 -0.17277467 0.111427106 0.19119349 -0.0008954659 0.03643894 -0.10042054
-0.12238892 0.022408282 0.10917838 0.21274467 -0.1309243 0.251483 0.035618447 0.051918894
0.09494625 -0.11028968 -0.21234383 -0.14554165 -0.1266767 0.09219808 -0.09169402 -0.011693146
-0.10335628 0.10472112 -0.20378192 -0.028187273 0.09024335 -0.07473928 -0.073645025 0.11317015
-0.0097824875 0.0027678781 -0.06121303 0.09160063 0.01351686 0.043057937 0.107711345 0.0997948
0.06650731 -0.14825474 -0.02718233 0.072786644 0.06965807 0.097933754 -0.023295954 -0.09190085
0.1366768 -0.12491563 -0.0364116 -0.023628164 -0.11785666 -0.094910406 -0.035495438 0.044587377
-0.05893137 -0.083948895 0.04232123 0.16532195 -0.13646185 -0.05102373 -0.06854537 -0.0955756
-0.038347 0.030587446 -0.08623514 -0.10885944 -0.11463647 -0.07730804 -0.106391616 -0.12836939
0.061293464 0.13608493 0.011546338 -0.09223731 -0.08366964 -0.16746902 0.07499543 -0.24977994
0.113362804 0.20752327 -0.0041551655 0.004218747 0.015331278 -0.084747545 0.049081057 0.08608204
-0.034002934 -0.20010813 0.10223143 -0.1144818 0.1336511 -0.16401924 0.0071851835 0.02458799
0.14510748 -0.09442705 -0.004338534 0.117930256 -0.031665806 0.14154011 0.019713912 -0.10273526
0.089201845 0.15897489 0.025906922 -0.036632646 -0.018002365 -0.02096531 0.12771806 0.0900141
-0.0076159067 -0.08910078 -0.04403198 -0.092903525 0.02150589 0.06767067 0.04374817 0.059164945
-0.0075467876 -0.09877749 0.021341437 -0.13657674 0.1755611 0.032972965 0.048851825 0.09979295
0.042304456 0.09778536 -0.09843232 0.119071454 0.09120814 -0.06302227 0.06460244 0.11848525
-0.21784706 0.08974547 -0.06741114 0.02983475 -0.0825147 0.20471005 0.13696067 0.05342824
0.09082253 -0.057598084 -0.05267428 0.031076577 0.059283067 0.061817106 -0.021663606 0.070463866
-0.050516885 0.0143576395 -0.080764644 0.015756475 0.14229663 -0.042909134 -0.122051775 0.031924453
-0.11324479 -0.051053744 0.0388455 -0.07901839 0.061723534 0.048321478 0.013525891 -0.030242687
0.11744653 0.15769652 -0.07641063 -0.023836622 -0.116364345 0.059295543 0.06687979 -0.09679441
-0.12658153 -0.016694691 0.06288052 0.11757851 -0.19522378 0.023180557 -0.029803146 -0.111482166
0.05083462 -0.05785188 -0.03244754 -0.16804045 -0.008848229 -0.03996899 0.032269713 -0.03293787
0.07999315 0.027873026 0.09321758 -0.0067645954 0.22044641 -0.024984729 0.06125871 0.033534653
-0.2458285 0.08377427 -0.09811512 0.051914386 -0.18333311 0.22204426 0.0630832 0.13780834
0.15662491 -0.041296426 -0.024900382 -0.075475276 -0.11937327 -0.0990301 -0.02373952 0.10403593
-0.082626246 0.074949615 -0.023853175 0.08271842 0.25207466 0.07985946 0.029208226 -0.08482772
-0.07973992 0.08698342 0.008035057 0.04813464 -0.0011085123 0.07141681 0.085578345 0.12962425

bias f4 [64]
00000000: 3b38 433d 72c9 c43d 16cb 7c3c b0e4 bfbd
00000010: 6054 0abe d96a 7c3d 19c4 1c3d eecb a13d
00000020: 4b72 d8bd 80c0 80bd 748c 7b3d 9d65 223c
00000030: 3761 5ebd b70e cdbd 1f1c 05be 6fb8 1a3d
00000040: 1ddc bfbd e288 0a3e 2a9f 88bc 3f93 b8bd
00000050: a7fd 173c 9ce5 103e 4dd1 a4bd 8ac2 a83d
00000060: 9b67 8a3c 8444 6e3d d6be 283d 0acb 963c
00000070: e4cc 96bb ad4d 51bd 307d bd3d 92ff cabd
00000080: 0d08 93bd e3d0 b83d 0eb7 eebc 2758 a93d
00000090: bd46 ee3d c88f e7bd 48bc c43c e51a a83d
000000a0: 82d6 3d3d 1042 a03d 84e5 773d b4a4 4e3d
000000b0: 7bac e0bd fb49 cd3d f8d7 55bd 8739 1c3d
000000c0: 918b 6abd eb26 223d edcf 43bc ab8b 41bd
000000d0: 2cfd bc3d e439 c43d 6439 1cbe b202 b83d
000000e0: 1334 cbbb 308c ad3d 71ce 97bb 5d16 fd3c
000000f0: 25bd cbbd 207b 01bd e2ff 213d 3c15 efbc
0.047661047 0.09608735 0.015429279 -0.093697906 -0.13508749 0.061625335 0.03827295 0.079002246
-0.10568675 -0.062867165 0.061413243 0.009911922 -0.05429193 -0.10012572 -0.12999009 0.037773546
-0.09368155 0.13528779 -0.016677458 -0.0901246 0.009276784 0.14150089 -0.080477335 0.082402304
0.016895106 0.05817081 0.04119762 0.018407363 -0.0046020616 -0.051099468 0.09252393 -0.099120274
-0.0717927 0.09024217 -0.029140022 0.08268767 0.11634586 -0.11306721 0.02401556 0.08208255
0.04634715 0.078251004 0.060521618 0.050450042 -0.10970398 0.10023876 -0.052207917 0.0381408
-0.057262007 0.039587896 -0.011951429 -0.04725234 0.09227976 0.09581354 -0.15256268 0.08984889
-0.006201276 0.08474004 -0.004632764 0.030894453 -0.09948186 -0.03161156 0.03955067 -0.02918493

weight f4 [4, 64]
00000000: f911 93bd aa81 973d 3139 41bd ad51 09be
00000010: 6373 2abb 2693 cfbd e68c e3bd d92e 763d
00000020: 5462 13bd 0402 8ebd c70c 813d 93aa cebd
00000030: 6b93 ca3d 8107 24bd 26cc c1bd fb26 9fbd
00000040: e879 e33d 5716 b73d 77a0 b63d 5603 263d
00000050: ed71 643d ec3e 9cbb df51 bfbd f0f1 c13c
00000060: ffba e7bd d80e ccbd 7e9f fc3c 2107 05bd
00000070: f9d2 1e3d 26b6 213e 71df 32bc c677 93bc
00000080: 9010 a73d dfbb d13c 5424 1dbc e68c f03d
00000090: e81b 153d aba1 843c af04 7dbd b8e8 093e
000000a0: 3d06 603d dc00 143e a656 6bbd eb55 b13d
000000b0: 136d bbbd 1252 543d 1147 01be 7c4f 183d
000000c0: 0b60 44bd abe2 d8bc e140 7b3d 4cce a63d
000000d0: c8f3 223c 16e0 1bbe 5bbc b7bd c040 06bd
000000e0: 4dae 83bd 4cd5 453c 54cf 403d c148 cd3c
000000f0: 30ba 073e 7c84 a0bd 25cc 4abc 20d0 8e3d
00000100: acdb 363e 0968 15be df1e 083e 9964 fc3d
00000110: 418a a73b c5f0 c8bd 423b 8c3d 0b2d 843e
00000120: b5c3 9bbd 9b19 c23c 0d47 343d a0f3 803d
00000130: e6e4 463d 9229 2b3e c1f0 293d 97b4 b7bd
00000140: 32e5 1c3d c46a 0ebe 2c2e c7bd ea95 44be
00000150: 2274 79be 6637 47be f649 7a3d 098d c2bd
00000160: 57f9 b43c a7f6 373e a87b 183e 5824 ed3d
00000170: 2b91 ff3c a903 143e 70aa d23d 808b ac3d
00000180: c3a4 c73c 2f56 883b 0f59 61bd 3873 b03d
00000190: 679a 043d 15b2 be3b 7fc6 953c 9125 dabc
000001a0: 8dde 18bd 33e0 6c3d 389c c13c e7f2 13be
000001b0: cf82 373d 1bf7 bf3d c9e1 e1bd 8fc6 9c3b
000001c0: 1eff dd3d 6d18 f33d e81e 56bd 4412 5d3d
000001d0: dc86 dfbd 8cf4 36bc 3d57 ae3d 3b4e aabd
000001e0: 9e7c e83d 9a05 0c3e 1a85 0c3e 33c0 153e
000001f0: 1222 9dbd 9ef0 273e fb15 8c3e 2172 b13d
00000200: 9192 7ebd fe7d 15be 8e6c 1e3d d896 9dbc
00000210: e31b c43d 73ef 4f3e 5d00 72bb df0f 17be
00000220: e20a 683e dcf9 543e 5cf7 4c3e e2fb 173e
00000230: fd2c 7cbe 1566 fbbb b202 503d 5e77 09be
00000240: 81e0 08bd 6984 14be ca0a 573d 2f18 433e
00000250: fb6e 5d3e aa2f 8bbd abac 08bc 640a 9bbd
00000260: 3b6b 12be f7a9 283e 5f03 eb3c 91a0 5e3e
00000270: 2c5e 263e 2621 1fbe 6a9c 26bc aede 2ebe
00000280: 4e29 8a3e 4cd6 803d 3bb1 fc3d b0be 97be
00000290: df09 aa3d 3d2d cbbd 1786 5dbd 1d26 353d
000002a0: cbf3 1abe a39c 21be c559 8d3c 68ee 153e
000002b0: a436 a3bd 160f 99bc a026 6a3e 9745 f03c
000002c0: ecce 9abd 7292 fb3d c85c cf3d 851a 863d
000002d0: 6ae6 79bd 674c 833d d211 97bd 4b22 1f3e
000002e0: 5271 1bbe f799 f5bd 120a b9bd bc30 b2be
000002f0: cdf1 e3bd 4ea5 533d 9194 49be 61c1 b03d
00000300: 8a8d 1b3c 4cb4 db3d f2d2 61bd 8fed cdbc
00000310: 7897 8b3d bb1b 0cbe fad0 083e da01 f03d
00000320: 6096 cbbd fdba efbd 24a3 44bd a7f2 0bbe
00000330: 5d20 083e d558 89bd 1378 db3d 1c3e f63d
00000340: 9a61 b53d aa12 243e 7ef3 3d3b c9f1 03bd
00000350: badc a4bd a698 063e 975e 2cbd d78a e0bd
00000360: ddd9 3bbd 1b71 13be 44e5 78bd 1a8c 28bd
00000370: 0327 fabc 3315 aebd 6f43 9b3b a2d2 973d
00000380: 38da e6bd 9856 1bbd 63e7 49bd 36d2 113e
00000390: ce20 ac3c 6b84 2b3c 633a 0fbd 1b7c 1a3e
000003a0: 226b 233e 9abb b3bc 10d3 00be e181 e83d
000003b0: fcb1 4dbd a078 a93d 96e1 00be c075 2b3d
000003c0: 411b b8bd 27bd 29be 99df cd3d 64b2 773d
000003d0: beda c4bc d1ba 06bd 6b25 fbbd ed93 29bd
000003e0: a422 8e3d f069 67bc 5fb2 083e dfd1 b43d
000003f0: 293a d7bd f316 a13d 68f2 8abd 23e9 e03c
-0.071811624 0.07397778 -0.047173683 -0.13410063 -0.0026008717 -0.10135488 -0.111108586 0.06010327
-0.035982445 -0.06933978 0.06301265 -0.10091128 0.09891399 -0.04004622 -0.09462766 -0.07771107
0.11107236 0.08939808 0.08917325 0.040530525 0.05577271 -0.004768243 -0.093417875 0.023674935
-0.113149635 -0.09963769 0.03083777 -0.0324775 0.038775418 0.1579214 -0.01091753 -0.018001448
0.08157456 0.02560228 -0.009591181 0.11745624 0.036403567 0.01619037 -0.061772045 0.13467681
0.05469345 0.14453453 -0.05745568 0.08658966 -0.09151664 0.05183608 -0.12624766 0.037185177
-0.047943156 -0.026475271 0.06134117 0.08144817 0.009945817 -0.15222201 -0.08971473 -0.032776594
-0.064297296 0.01207478 0.047072724 0.025059106 0.13254619 -0.078377694 -0.012377773 0.069732904
0.17857236 -0.14590468 0.13293026 0.12323875 0.0051129167 -0.09811548 0.0684724 0.25815615
-0.076056875 0.02369385 0.04401307 0.06296468 0.04855814 0.16715077 0.041489366 -0.08969992
0.038304515 -0.13907915 -0.097256035 -0.19197813 -0.24360707 -0.19454727 0.06110569 -0.094995566
0.02209155 0.17965184 0.14890921 0.11579198 0.031197151 0.14454521 0.102864146 0.08425045
0.024370557 0.0041606645 -0.055016574 0.08615726 0.032373812 0.005819569 0.018283127 -0.026629241
-0.037321616 0.057831 0.023634061 -0.14448129 0.044802483 0.093733035 -0.11029393 0.004784412
0.10839675 0.11869893 -0.05227557 0.053972498 -0.10914394 -0.011166703 0.08512733 -0.083157025
0.11351894 0.13674012 0.13722649 0.146241 -0.07672514 0.16400382 0.2736052 0.086643465
-0.062151495 -0.14598843 0.038677745 -0.019236967 0.095756315 0.20306186 -0.0036926486 -0.14752148
0.22660401 0.20798439 0.20016235 0.1484218 -0.24626537 -0.0076720812 0.05078382 -0.13424441
-0.03341723 -0.14503635 0.052500524 0.19052194 0.21624367 -0.067962006 -0.0083419485 -0.07570341
-0.14298718 0.16471086 0.02868813 0.21740939 0.16246861 -0.15539989 -0.010169128 -0.17077133
0.26984638 0.06290874 0.123384915 -0.2963767 0.08302664 -0.09920738 -0.054082956 0.0442258
-0.15132062 -0.15782408 0.01725472 0.14641726 -0.07969406 -0.018683951 0.22866297 0.029330058
-0.075589985 0.122837916 0.101251185 0.06548027 -0.061010756 0.06411057 -0.07376446 0.15540425
-0.15179947 -0.11992257 -0.09035124 -0.34802806 -0.11130104 0.05167132 -0.1968558 0.08630634
0.009494195 0.10727748 -0.055132814 -0.02513769 0.06816 -0.13682453 0.13360968 0.11719103
-0.09940791 -0.11705587 -0.048007146 -0.13666783 0.13293596 -0.067063965 0.10716262 0.12023565
0.08856507 0.16022745 0.0028984244 -0.032213006 -0.08049913 0.13144168 -0.042082395 -0.109639816
-0.045862067 -0.14398615 -0.06076552 -0.041149236 -0.03053618 -0.08500137 0.0047382633 0.07413222
-0.11272091 -0.03792438 -0.049292933 0.14240345 0.021011736 0.010468583 -0.03496779 0.15086405
0.15958837 -0.021940041 -0.12580514 0.113528974 -0.050218567 0.082749605 -0.12586054 0.041860342
-0.08989573 -0.16576062 0.100524135 0.06047286 -0.024030086 -0.032893006 -0.12262996 -0.04140084
0.06940201 -0.014124379 0.13349293 0.08829092 -0.1050914 0.07865705 -0.067845166 0.027454918

bias f4 [4]
00000000: 49ca 9c3d ffb5 893d 3fb4 a7bd 8f29 a7bd
0.0765577 0.06724166 -0.08188676 -0.081622235

weight f4 [64, 2]
00000000: 0a5b babe 5d13 1fbe 0599 f4be cb50 e73e
00000010: cda1 cd3d f383 46bd 4aed a4be 8dea 953e
00000020: 641c a63e 0802 133f 8009 9d3e ddaf dc3e
00000030: 1dd8 d93e dcfd 1f3e 2884 133f 0ec7 09be
00000040: c331 383f 350c 74bd 291d 9b3e b3f2 063e
00000050: c495 3bbf c48e e13e 1544 d1be 0b1d 093e
00000060: 9335 d73e 1436 6a3f 4a15 1e3f 3845 f1be
00000070: 439b 09bf bd0a 8fbe d6cf 2fbe 7ef2 05bf
00000080: 51c5 653e f3f4 73be 051a 3b3d 3d94 a73c
00000090: b3d7 92be abaa 4fbe 9769 88be 98bb 963e
000000a0: d499 74bc dc04 28be f434 9f3e f854 bdbe
000000b0: 3a55 c6bd 2422 013f 409a e5be fb1d 113e
000000c0: 7512 55bf 7172 73bd 241e f23c 2265 24bf
000000d0: 38aa 55bd 1ebd 88bf 0107 c43e baff 35bf
000000e0: e199 b23d a292 9abc bdcb 1fbe ff0c b4be
000000f0: 1119 b3be b7f5 1e3e 9fd7 30bd dd88 3d3f
00000100: 7d04 c93e 4302 bcbe ed0e 853e f953 423f
00000110: 1b43 9ebe f69b 5dbe b5b8 2b3f e80a 07bf
00000120: 6503 54bf 8a92 e13e 0733 a83e 7369 b43d
00000130: 4216 1abf 919a d63e f2f1 a5be cc07 81bd
00000140: b6a6 e73e a659 85be 7bbf 533b aceb 023e
00000150: 259a 2ebf 070a b6bb 02e8 66be b696 88bf
00000160: 2433 543d 75de fcbb 012d 413f bc65 c83e
00000170: f862 f83e 2529 2c3c caf9 18be 01f3 b9be
00000180: cca3 3ebd 00c8 193f 8e89 e63d 89a5 09be
00000190: 2425 3ebf 15e5 b1be c0e1 3b3d 58b3 2ebf
000001a0: e0fb 50bf b2e7 d63e cdf4 31bf 262f 38ba
000001b0: f4e6 61bf d852 603d a3a5 4c3f 9696 98bd
000001c0: ce41 4e3f 8bf0 a7be 915c 43be 5377 14be
000001d0: 3e0a 1dbf ecec 75be 33bc 02be cd18 b0bd
000001e0: 6f64 2d3e 541b 2a3e cb73 e9bd c74e 37bf
000001f0: f5f1 8ebe ed5e 72bf 7000 d63c 57d7 353e
-0.36397582 -0.1553473 -0.47772995 0.45178828 0.10040627 -0.04846568 -0.32212287 0.2928051
0.32443535 0.57424974 0.3067131 0.43102923 0.42547694 0.15624183 0.5762353 -0.1345484
0.7195093 -0.059581954 0.30295685 0.1317852 -0.732754 0.44054234 -0.40872255 0.13389985
0.4203306 0.91488767 0.61751235 -0.47123122 -0.53752536 -0.2793788 -0.17169127 -0.5232314
0.22438551 -0.2382391 0.04567911 0.020456428 -0.2868019 -0.20279948 -0.2664306 0.29439998
-0.014929254 -0.16408104 0.31095088 -0.3697889 -0.096842244 0.5044272 -0.44844246 0.14171593
-0.8323129 -0.05943531 0.029555388 -0.64216816 -0.052164286 -1.0682714 0.38286594 -0.7109333
0.08720756 -0.018868748 -0.15605064 -0.35166165 -0.34980062 0.1552342 -0.043174382 0.7403696
0.39261237 -0.36720476 0.2598795 0.7590938 -0.30910572 -0.21641526 0.67078716 -0.52751017
-0.8281768 0.44057113 0.3285143 0.08809175 -0.6019021 0.419148 -0.32411152 -0.06300315
0.45244378 -0.2604496 0.0032310176 0.12785214 -0.68203956 -0.0055553946 -0.22549441 -1.0670993
0.051806584 -0.0077169486 0.75459296 0.39140117 0.48513007 0.0105078565 -0.14939037 -0.3631821
-0.046542928 0.600708 0.11256705 -0.13442053 -0.7427542 -0.34745088 0.04586959 -0.68242407
-0.8163433 0.41973644 -0.6951416 -0.00070260686 -0.8824303 0.054766506 0.7994024 -0.07450597
0.8056916 -0.32800707 -0.1907828 -0.14498644 -0.61343753 -0.2401616 -0.12767105 -0.085984804
0.16932844 0.16611987 -0.11399039 -0.7160458 -0.27918974 -0.94676095 0.026123255 0.17757927

bias f4 [64]
00000000: 90da 40be 5b96 513f d233 45bf 9d79 4b3f
00000010: 132e d23e b0e7 2bbf dbe5 74be f8fc 1bbc
00000020: aa23 c93e e609 8dbd 089e 733e aa3f c9be
00000030: 7097 b63e 2663 23bf f871 173f 5a68 10bf
00000040: a481 563e d348 dd3e 1a7f 0c3f 25bf 6abe
00000050: ce69 2a3f a51c 243f 0ef3 65bd d4dd adbe
00000060: 60d7 203f 8335 ff3e 3c19 6fbe d171 3dbe
00000070: bafe 46bf 13ff ff3e f111 1cbe 511c 41bf
00000080: 4807 41bf 3fae e5be f310 05bf 55be c9be
00000090: a1d2 dabe b78d 1a3f 1e4c b23e 260f f13d
000000a0: 173d 203f f5ec b33e 4ce3 073c accd bbbe
000000b0: 74d7 053f baee 3ebf 4d44 483f 833f c93e
000000c0: 8fdd 6a3e b0ec 253f 92f5 3a3f 7142 90be
000000d0: 368a 013c 795a 9c3b d392 c03e 7a45 ec3d
000000e0: f25d 973e 02d7 213f 5b98 163f 5deb d2be
000000f0: 438a bf3e 306c 27bf 69d2 23bf dac4 e93d
-0.18833375 0.8187005 -0.77032197 0.7948244 0.41050777 -0.671504 -0.23915808 -0.009520762
0.39285022 -0.068866536 0.23790753 -0.39306384 0.35662413 -0.63823164 0.5915828 -0.5640923
0.20947891 0.43219623 0.5488144 -0.22924478 0.66567695 0.6410621 -0.05614 -0.33958304
0.62828636 0.49845514 -0.2334947 -0.18500449 -0.7773243 0.49999294 -0.15241219 -0.7543383
-0.75401735 -0.44859502 -0.5197899 -0.39403024 -0.42738822 0.6037249 0.34823698 0.117704675
0.62593216 0.3514172 0.008293938 -0.36680353 0.5228188 -0.7458302 0.7822922 0.39306268
0.2293608 0.6481428 0.7303096 -0.2817569 0.007906487 0.0047715274 0.37612018 0.11536689
0.29563862 0.632187 0.58826226 -0.41195193 0.37410173 -0.65399456 -0.63992935 0.114144996

weight f4 [64, 64]
00000000: 9282 dbbd 4db6 f13d 4e98 5abe bdb9 973d
00000010: d636 f3bc c209 e83d c3e6 1b3e 1263 893d
00000020: 0a85 1a3e 2e99 9d3d dffe 843d 45f5 8fbd
00000030: 988c 47bd 1b50 5c3e 9ab9 92bd 737b fe3a
00000040: 5cb2 0cbd 5dbe a1bc 0198 033c 0884 d03d
00000050: 055b 7e3e 66fd d7bd d13d eabb 6167 9cbc
00000060: eb69 febd bba9 f43d aa2c 203d 8749 5c3e
00000070: d14a a8be dcf4 d23c 0b17 b13d 11de 113e
00000080: e3a5 3abe 05be 2dbd d9c9 c73d 0b92 463d
00000090: 0944 c5bd 1a0b 4ebd c6ba f83c b36e 433d
000000a0: 1740 9dbd 9a08 8c3d 747a 0fbe 0db1 8c3d
000000b0: e565 a8bd 380f 9bbc 89a0 16bd 9686 71bc
000000c0: 6b21 f33d f1b7 923b d6c7 84bc 8617 afbc
000000d0: 70b4 1d3d ee8c 93bc 68ec 27bd d70c 313e
000000e0: fa5f 6bbd 9b18 653c 227b 8bbd a163 02be
000000f0: f756 4a3d 833c 19bd a8af debd 1018 d03b
00000100: 5021 e73d 1f90 94bc 6d9b 553e e206 ba3c
00000110: dd75 f4bc 8fc9 f43c 20fe a43d 1c1c ed3d
00000120: d7dd 7cbc 3ff5 183c c01f a6bd ff12 97bd
00000130: 6195 a6bd 8977 5a3d 5f58 9a3d 71c5 10be
00000140: 3439 e23d 8c99 e53b df0b e23d c2f9 2fbe
00000150: e356 02be ec9e 1dbc d3d0 f33b fc1d 12bc
00000160: 0856 183e 3c16 80bd f21c 01be 9653 1bbe
00000170: b7ea 09bc 0336 a8bc 1a2b 723d 9472 02bd
00000180: 1ef9 66bd c206 063e 9c8f bdbc 114a ffbd
00000190: 1de0 a33d e04e 833d 69c8 db3d e008 ae3d
000001a0: ed7d c13d f0fc 98bd 2ee0 303d bc45 0abd
000001b0: 6b3a 81bc 63c7 263d 6d2e f83c c867 c83d
000001c0: 1039 63bd a8fc a4bc 60bf 64bc b9b2 1c3d
000001d0: 260e 933d 21c4 163e bbd9 c63d ae93 383d
000001e0: 3b7c a13d 7dc2 8bbd f8fa 113e 1ab7 d6bd
000001f0: e0b7 d33d 031c 90bd 40c0 d8bd 9462 9d3b
00000200: bf2e 2dbd ac0b c13d ba5d 9d3d 9c87 a83d
00000210: b59e 053d d2a5 c63c ff91 dc3c 7558 ec3d
00000220: 01e7 5ebd 5a97 823d 18f4 aabc e9cf 8ebd
00000230: 14f7 3dbd bfd9 233e a9cb cb3d 844d 663a
00000240: f5ec c93c 65c9 cabd e64c 90bb 8996 e23b
00000250: 5977 0b3d bfd5 b4bc 5fd4 b0bd a9d2 b8bd
00000260: e4df 13be 516c 29bd c8de 813d 2689 d93d
00000270: f2d9 30bd d74e 113d 34d9 873d ac98 0dbd
00000280: 6b0d c73b 8c60 5f3d 5f6f 043d d2a1 37bd
00000290: 7789 fc3d b7cd a2bc 875a 98bb 3eb6 cb3d
000002a0: 20af bfbd 9b84 4a3d 772e 05be 29c4 9d3d
000002b0: 8588 153d d277 303c 2ba8 d1bd e041 983d
000002c0: 9b27 f43c 0541 a3bd 3380 4c3b 44fa 833d
000002d0: eda3 9f3d 9f4f ad3d 1803 9dbd 4722 8fbd
000002e0: 294e 0cbd f228 62bd 8947 1cbd 0b41 b2bd
000002f0: 33c1 d2bc e5bb d13d 0a95 7fbd bf44 c93d
00000300: 2473 373b 2313 6d3d 2321 c0bc 0d2a ed3c
00000310: 350c c0bd 63d9 a9bd 3e6c c6bd d26e 013c
00000320: 85c3 d03d 9e5c 93ba 3ab7 563b 64b4 373d
00000330: 0502 9e3d 4630 463e 4d4f cdbd 8d8a 66bd
00000340: 9736 423d 4415 9c3d c430 303e d0ba 35bb
00000350: bdf8 883d d65c 23bd d9e8 7b3c 0839 06bb
00000360: 899c 3bbd 0d52 173e 03d1 ed3d b252 7fbc
00000370: 58cf 8dbd 0038 693d 7461 c1bc 92bb cc3d
00000380: 0212 a93c 668b 923d f95c a3bc 2a6c 033e
00000390: 0fe3 a9ba e135 bcbd 0039 fdbc e28f 75bc
000003a0: 362c 8f3d a877 1fbe 87ae a8bc 8574 2ebb
000003b0: ecf4 8c3d ac4e 17bd 4cfc 073e 42c3 a1bc
000003c0: a560 ecbb ae65 463c ff90 383d 76e6 d8bd
000003d0: 6916 b63d c4a0 b43d 222f 8c3d 847b 343d
000003e0: ce2c 0fbe 0d47 463d 660b aebd d2df a3bd
000003f0: 1bde 3bbd b13e e73d 7648 6dbd 1eca 2d39
-0.10718264 0.11802349 -0.21347162 0.07408474 -0.029689234 0.11329986 0.15224747 0.06708349
0.15089813 0.07695232 0.06493925 -0.07029203 -0.048718065 0.21514933 -0.07164307 0.0019415453
-0.034349784 -0.019744093 0.008031846 0.10181433 0.24839409 -0.10546379 -0.0071484824 -0.019092264
-0.12422546 0.11946436 0.039105095 0.21512423 -0.3286958 0.025751524 0.08646973 0.14244868
-0.18227343 -0.042417545 0.09755296 0.04847912 -0.09632117 -0.050303556 0.030362498 0.047712993
-0.0767824 0.06837578 -0.14011556 0.06869707 -0.0822256 -0.018928155 -0.036774192 -0.01474156
0.11871608 0.004477494 -0.01620857 -0.021373522 0.038502157 -0.018011536 -0.04099694 0.17290054
-0.057464577 0.013982917 -0.06810595 -0.12733318 0.049399342 -0.037411224 -0.108733475 0.0063505247
0.11285651 -0.018135129 0.20860071 0.02270836 -0.029841358 0.029881267 0.08056283 0.11577627
-0.01543375 0.009335815 -0.081115246 -0.0737667 -0.081339605 0.053336654 0.07536387 -0.14137818
0.11046067 0.0070068296 0.110374205 -0.17185119 -0.12728457 -0.009620409 0.0074406653 -0.008918282
0.14876568 -0.06254241 -0.12608698 -0.15168604 -0.008417777 -0.020533567 0.059123136 -0.03184755
-0.05638992 0.13088515 -0.023139767 -0.12465299 0.080017306 0.064115286 0.107315846 0.084977865
0.094478466 -0.07470119 0.043182544 -0.03375791 -0.015774926 0.040717494 0.030295575 0.0978542
-0.05547434 -0.020140007 -0.013961643 0.03825638 0.07180433 0.14723255 0.097094975 0.045062713
0.07885023 -0.06824205 0.14255893 -0.104841426 0.10337806 -0.07036593 -0.10583544 0.004803011
-0.04228091 0.09426054 0.076838925 0.082289904 0.032622058 0.024248991 0.026925085 0.11540309
-0.05441952 0.06376524 -0.020868346 -0.069732495 -0.04637821 0.16001032 0.099509545 0.00087853544
0.024649123 -0.09901694 -0.0044036983 0.006914918 0.034049366 -0.022074578 -0.086342566 -0.09024555
-0.14440876 -0.041363064 0.0634132 0.10621862 -0.0431766 0.03547558 0.06633225 -0.034569427
0.0060745976 0.054535434 0.032332774 -0.04483206 0.12330907 -0.019873483 -0.0046494636 0.09946869
-0.09359574 0.04944287 -0.13006006 0.0770343 0.03650715 0.010770755 -0.102371536 0.0743444
0.029804042 -0.07971386 0.0031204342 0.06444219 0.07794938 0.08462452 -0.07666606 -0.0698896
-0.034254227 -0.05521483 -0.03815416 -0.08703812 -0.02572689 0.10240916 -0.062397994 0.098275654
0.0027992213 0.05787958 -0.0234533 0.028950715 -0.09377328 -0.08293416 -0.09688614 0.007899957
0.101935424 -0.0011242812 0.003276302 0.04484977 0.07715229 0.19354352 -0.10024891 -0.056284476
0.047415342 0.076212436 0.17206103 -0.0027729757 0.06688068 -0.039883457 0.015375339 -0.002048077
-0.04580358 0.14777394 0.116121314 -0.015583681 -0.06924313 0.05693817 -0.02360604 0.09996714
0.02063847 0.071554944 -0.019941794 0.1283423 -0.0012961345 -0.09189964 -0.030910969 -0.014987918
0.069908544 -0.15572989 -0.020591034 -0.0026619744 0.06882653 -0.03694026 0.13279837 -0.019746426
-0.0072136694 0.012109203 0.045060154 -0.10590832 0.08890993 0.08819726 0.06844927 0.044063106
-0.13981935 0.048407603 -0.08498268 -0.08001675 -0.045866113 0.11291254 -0.057930432 0.0001657386

bias f4 [64]
00000000: 21bb 273c 19bb 843d 4860 c3bd 41ea 143d
00000010: 71c0 a0bd c1e0 e8bd b567 40bd bf58 983c
00000020: 40c7 6a3d acea 87bd 68b0 113e 5db1 953c
00000030: c9bd 73bd 0a36 823a 397f ce3d fe74 87bd
00000040: 3d12 2c3c 5d74 003e d92b fc3d e064 c53d
00000050: 7edd 0e3e 7333 3abd ac0c 7a3d 65f9 8c3e
00000060: b250 0abe 2661 5b3d 479c 18be 6e50 9abd
00000070: ddb6 b7bd fcd4 a9bd 46d1 4d3d 3589 d7bb
00000080: d142 bcbc 3928 90bd f4e5 66be f3f5 85be
00000090: 11ba de3d afaa 1ebd e657 a03d 3ba0 3d3d
000000a0: 91f3 8cbd cf4e babd 1818 f0bd d830 b53d
000000b0: 8a01 423d 7b94 df3b 841b 49bd 859d c73d
000000c0: 9d0a ab3d c25f 793d f82b 05be 1d85 123e
000000d0: 9e4b d93d a669 b23d 1e34 97bd 1d71 59bd
000000e0: 26b0 083e 0a00 ce3d d498 05be 1081 4a3d
000000f0: 4743 e73d 35ad 21bc e3c8 653d 1c7a 4cbd
0.010237486 0.064809985 -0.095398486 0.036356214 -0.07849205 -0.113709934 -0.046973903 0.018597005
0.057318926 -0.06636557 0.1422745 0.01827305 -0.059507165 0.0009934318 0.100828595 -0.06614111
0.010502395 0.12544389 0.12313051 0.09638381 0.1395168 -0.045459222 0.06104724 0.27534023
-0.13507345 0.053559445 -0.14903365 -0.07534872 -0.08970425 -0.08292577 0.050248407 -0.0065776356
-0.02298108 -0.07038922 -0.22548658 -0.26164207 0.10875333 -0.038736995 0.07829265 0.046295386
-0.06882394 -0.09097063 -0.117233455 0.08847207 0.04736475 0.00682312 -0.049098507 0.09746841
0.08351634 0.060882337 -0.13005054 0.14308591 0.10610126 0.08711557 -0.073829874 -0.05308639
0.13348445 0.10058601 -0.1304658 0.04943949 0.11292129 -0.009867956 0.056099784 -0.04992114

weight f4 [1, 64]
00000000: cd0f 48bd f1a3 803b 5f89 8bbb db83 3abc
00000010: 7b9b 62bb 376e 99bb 836d d43a eba6 cd3d
00000020: 4045 fb3b f48f 06ba 53b1 ac3d feb0 47bc
00000030: f096 9ebd 324a 71bd 36a4 bb3c 2531 8dbb
00000040: 63cf 93bd 7c61 243c b415 553d 4453 1b3c
00000050: 420b 913a ac8f 103d b41c d73d 8ec9 f33d
00000060: 340f b5bb 851d 133e 826b 2ebd 095e faba
00000070: 7069 25bb d851 66bb 45de e1bb cdb0 9fbb
00000080: cc9f 0c39 eeb5 24ba 8639 a0bd 4f58 83bd
00000090: fdbd 4abd c966 533b 3e50 1c3b 0699 9b3b
000000a0: 1b27 7fbc 4798 263e b51e f3bd 31bd fe3b
000000b0: a594 473a a8f8 48bc c47b 76bd 73f7 bf3a
000000c0: e4ee 5a3d 19d8 ec3d 6f8d 93bd 68e9 5d3c
000000d0: 09b2 14bc 140c e93a a482 8fbc 1fa3 b93d
000000e0: d6a3 ff3d b213 cb3b b8b3 3cbd ac26 8dbd
000000f0: 5398 81bc 250d cb3b f2bb b439 c81e 35bc
-0.048843194 0.0039257933 -0.0042583193 -0.011383976 -0.0034577537 -0.004682328 0.0016206953 0.10041603
0.0076681674 -0.0005133145 0.084322594 -0.012188194 -0.07743633 -0.05890865 0.02290545 -0.004308837
-0.0721729 0.010033008 0.05202265 0.009480301 0.0011065977 0.035293266 0.105035216 0.11903678
-0.005525494 0.1436673 -0.042582996 -0.0019101511 -0.0025239848 -0.0035143998 -0.0068929517 -0.004873371
0.0001341097 -0.0006283213 -0.07823472 -0.06413328 -0.049497593 0.003225731 0.002385154 0.0047484664
-0.015573288 0.16269027 -0.11871091 0.007774018 0.00076133973 -0.0122663155 -0.060176626 0.0014645889
0.05345048 0.11564655 -0.07204711 0.013544418 -0.00907565 0.0017780089 -0.017518349 0.09064316
0.12482421 0.006197416 -0.04606983 -0.06892142 -0.015819704 0.0061966353 0.00034472306 -0.011054702
