util/save/model_save-DDPG-critic.pt (torch, 7007 bytes, 4 tensors)

weight f4 [64, 1]
0	0x3d90aac6	0.070638224
1	0x3f634534	0.8877747
2	0xbd144b94	-0.03620489
3	0xbf145c72	-0.5795356
4	0xbf430c7d	-0.7619093
5	0xbf4aaeca	-0.79172957
6	0xbea035c1	-0.3129101
7	0x3f38d0f6	0.7219385
8	0x3f03f74a	0.5154921
9	0x3ef6e540	0.4822178
10	0x3ea636cd	0.32463685
11	0x3f4b2a38	0.79361296
12	0x3f4cbc8c	0.799752
13	0x3ea2945a	0.31753808
14	0xbec4b1de	-0.38416952
15	0x3f5f1723	0.8714468
16	0x3f4c3d9c	0.7978151
17	0x3d96b027	0.07357817
18	0xbdeab636	-0.11460535
19	0x3f1c5449	0.6106611
20	0x3f05884e	0.5216111
21	0x3eb1086a	0.34576732
22	0x3ea2bb1c	0.31783378
23	0x3e9b71df	0.30360314
24	0x3efb2257	0.49049637
25	0xbe9e48b8	-0.30914855
26	0x3ecabd48	0.39597535
27	0xbe1da242	-0.15393928
28	0xbe452f73	-0.19256382
29	0xbf4fba63	-0.8114378
30	0x3f3d7002	0.73999035
31	0x3eaa16f5	0.3322064
32	0xbf155aa6	-0.58341444
33	0xbf3f6d1f	-0.7477588
34	0xbf58c042	-0.8466836
35	0x3f1c1dbd	0.60982877
36	0x3f4ce2ed	0.8003376
37	0xbf4b617a	-0.7944561
38	0xbf898c60	-1.0745964
39	0x3f375d20	0.7162647
40	0xbefc5693	-0.492848
41	0x3f476a74	0.7789681
42	0x3ee7da23	0.45283613
43	0xbf503bb1	-0.8134108
44	0x3f1d03b4	0.61333776
45	0x3ebd2e08	0.36949182
46	0xbf3b3d7c	-0.7314069
47	0x3e854be4	0.26034462
48	0xbec534c5	-0.38516822
49	0x3f10023a	0.562534
50	0x3f02d09c	0.5109956
51	0x3f0da3e6	0.55328214
52	0x3f815f54	1.0107217
53	0x3ec3fd9c	0.38279426
54	0xbf303733	-0.6883423
55	0xbeeb15cc	-0.45915067
56	0x3a1593be	0.0005705914
57	0x3f085c84	0.5326617
58	0x3f727057	0.94702667
59	0x3f63a66a	0.889258
60	0x3f5771ea	0.84158194
61	0x3f5bc5ce	0.858487
62	0xbf0d8fa7	-0.5529732
63	0x3ea04653	0.31303653

bias f4 [64]
0	0x3f66cbad	0.90154535
1	0x3e8a3f94	0.2700163
2	0xbf264c65	-0.6496032
3	0x3e272a9e	0.16324851
4	0xbf7cbeb7	-0.9872851
5	0xbf052aaf	-0.52018255
6	0xbf6ff853	-0.9373829
7	0xbea3e281	-0.32008746
8	0x3ed23164	0.41053307
9	0x3f827ce0	1.0194359
10	0xbf490201	-0.7851868
11	0x3f78cfd1	0.971921
12	0x3e813c22	0.2524119
13	0x3f1a723d	0.60330564
14	0x3e569f7f	0.2095928
15	0x3f6da130	0.9282408
16	0xbf3be0bb	-0.73389786
17	0xbe812f90	-0.252316
18	0xbf8dfc54	-1.109263
19	0x3f0e0efe	0.55491626
20	0x3ec8029c	0.3906449
21	0xbe0b7f78	-0.13622844
22	0xbeaee40f	-0.3415837
23	0xbed3102b	-0.41223273
24	0x3ddcf330	0.10788572
25	0x3f3896d6	0.7210516
26	0x3f397242	0.7243997
27	0xbed350ca	-0.41272575
28	0xbe5fc18a	-0.21851173
29	0xbf717445	-0.9431804
30	0x3f7d3ade	0.9891795
31	0xbf43402e	-0.76269805
32	0xbd3a13e7	-0.045429137
33	0xbec526df	-0.3850622
34	0x3da785ad	0.081797935
35	0x3def49f7	0.116840295
36	0x3edf25f7	0.43583652
37	0x3dd7d917	0.105394535
38	0x3f0f8e5b	0.5607659
39	0xbf01f11c	-0.5075853
40	0xbf56e9f2	-0.8395072
41	0x3d9ad7b5	0.07560674
42	0x3ecbd0c9	0.39807728
43	0x3f30c713	0.69053763
44	0x3f6de2a7	0.9292397
45	0x3ee1f37c	0.44131076
46	0xbe720464	-0.23634487
47	0x3f0cc610	0.5498972
48	0xbea11a60	-0.31465435
49	0xbebbdc0c	-0.3669132
50	0xbf65f4e8	-0.8982682
51	0x3d8e25aa	0.069407776
52	0x3e0ced13	0.13762312
53	0xbf4d5190	-0.8020258
54	0xbf8923d4	-1.0714059
55	0xbf0475e5	-0.5174239
56	0x3daeafd1	0.08529628
57	0xbe03886e	-0.12845013
58	0x3f2a50cc	0.66529536
59	0x3f3b3190	0.731225
60	0x3f77af3c	0.9675176
61	0xbec2b148	-0.3802588
62	0xbf3bdb54	-0.73381543
63	0xbe915e97	-0.2839248

weight f4 [16, 64]
0	0xbe137373	-0.14399509
1	0xbd701537	-0.058613982
2	0xbd09dd72	-0.033658452
3	0xbd237379	-0.039905045
4	0xbc8ee155	-0.017441431
5	0x3e309bd4	0.17246944
6	0x3e209fb7	0.15685926
7	0x3c96810e	0.018372085
8	0xbc32ea76	-0.010920158
9	0x3c7a11cd	0.015263033
10	0xbb8e0112	-0.0043336237
11	0xbd02825a	-0.031862594
12	0xbc86d894	-0.016460694
13	0xbe43bd5a	-0.191152
14	0x3dd0bb78	0.10192007
15	0xbcfef525	-0.031122753
16	0xbd182661	-0.037145976
17	0x3cb7240f	0.022356061
18	0x3dc7d86a	0.097580746
19	0xbdc14f9e	-0.09439014
20	0x3d12a899	0.03580532
21	0xbd436487	-0.047703292
22	0xbe2220bf	-0.15832804
23	0x3d0491d6	0.032365642
24	0xbda0face	-0.07860337
25	0xbd4f7d9d	-0.050656904
26	0x3d328cb7	0.043591227
27	0x3e46aa7a	0.19400969
28	0x3dd3329b	0.103123866
29	0x3d845e54	0.06463304
30	0x3cfa2f18	0.030540034
31	0xbe1b5a1b	-0.15171091
32	0x3e25b4f1	0.16182305
33	0xbd47963f	-0.04872727
34	0xbb04cc7e	-0.0020263488
35	0xbdfe082a	-0.12403901
36	0x3c5d4d25	0.013507162
37	0x3d193bf3	0.037410688
38	0x3d80a3b7	0.06281226
39	0xbd1c5370	-0.03816551
40	0x3da1f566	0.07908134
41	0xbe185d74	-0.148794
42	0xbd2f005f	-0.042724963
43	0x3dd2b5b7	0.102885656
44	0xbd88ee7e	-0.06686114
45	0xbda3238a	-0.07965763
46	0xba527245	-0.0008027892
47	0xbe19ba0b	-0.15012376
48	0x3d299af5	0.041407544
49	0xbd577969	-0.05260602
50	0x3cae30fd	0.021263594
51	0xbe02444a	-0.12721363
52	0xbda30b55	-0.07961146
53	0xbc6fc237	-0.014633707
54	0x3e0bbcfb	0.13646309
55	0x3d891acd	0.06694565
56	0xbcc4e2fd	-0.024034018
57	0xbca4bf16	-0.020110648
58	0xbe3cf5fc	-0.1845321
59	0x3d10cee6	0.035353564
60	0x3bdc0302	0.0067142257
61	0xbd9c116b	-0.0762051
62	0x3e2d2997	0.16910397
63	0x3c7dd18b	0.0154918535
64	0xbd9394cf	-0.07206117
65	0xbd3bf5d8	-0.04588875
66	0x3c4c9489	0.012486585
67	0x3df62a02	0.12019731
68	0x3ddd201c	0.1079714
69	0x3ce4b617	0.027918858
70	0xbd2a2564	-0.041539565
71	0xbdae3cf2	-0.08507718
72	0xbd9cf6e7	-0.076642804
73	0xbc99634d	-0.018724108
74	0xbd94d242	-0.07266666
75	0xbe2aaeae	-0.16668198
76	0xbdf1d16c	-0.11807522
77	0xbd8f83c2	-0.07007553
78	0x3d9ecfe0	0.07754493
79	0xbde68f19	-0.112577625
80	0x3d4c880b	0.04993443
81	0xbdacd87c	-0.084397286
82	0x3e2a59fe	0.16635892
83	0xbe26249b	-0.16224901
84	0x3d483350	0.04887706
85	0x3c47a685	0.012185697
86	0xbe24ee18	-0.1610645
87	0xbde876f9	-0.11350817
88	0x3cfb3166	0.030663203
89	0xbb6a0691	-0.003570948
90	0xbc8bbdcd	-0.017058278
91	0xbd2ff21f	-0.042955514
92	0x3e20a233	0.15686874
93	0x3d9867cc	0.07441673
94	0xbb406dbb	-0.002936228
95	0x3d1f1d2b	0.038846176
96	0x3d111ae6	0.035426043
97	0x3d4a31da	0.04936395
98	0x3d95521d	0.072910525
99	0xbe1bcf66	-0.15215835
100	0xbe209b39	-0.15684213
101	0xbc12ec96	-0.008967539
102	0xbc276a72	-0.01021825
103	0x3cc520ca	0.024063487
104	0x3d0df80f	0.034660395
105	0x393da8c8	0.0001808732
106	0xbd0e952d	-0.034810234
107	0x3dbce899	0.09224052
108	0xbe1b4359	-0.1516241
109	0xbdb721d0	-0.08941996
110	0x3e0c6d37	0.13713537
111	0x3bf03d2c	0.007331511
112	0x3d059438	0.032612056
113	0xbe20b10d	-0.1569254
114	0xbddf2017	-0.108947925
115	0x3ce4f86b	0.027950486
116	0xbdcbfb24	-0.09960011
117	0x3d7dbccd	0.061947633
118	0x3df1978a	0.11796482
119	0xbd4fe29a	-0.050753213
120	0xbd967a3c	-0.07347533
121	0xbe2f3c23	-0.17112784
122	0x3c8443a3	0.016145533
123	0xbcc2771e	-0.02373844
124	0xbe36db66	-0.17857131
125	0x3d2eb9a0	0.042657495
126	0x3dd6075a	0.10450621
127	0xbc93e557	-0.018053694
128	0xbe3a8380	-0.18214226
129	0xbd93000a	-0.07177742
130	0x3dfb280c	0.12263498
131	0xbd9cf3ec	-0.07663712
132	0x3d99457e	0.07483958
133	0x3e11a20f	0.14221977
134	0x3e2211d9	0.15827121
135	0xbdec01f4	-0.1152381
136	0xbbe95857	-0.0071211266
137	0xbcac2ebf	-0.021018384
138	0x3cc3aff9	0.023887621
139	0xbdd5d38c	-0.1044074
140	0xbca21b43	-0.01978839
141	0x3c7829bc	0.015146669
142	0x3e0979a4	0.13425308
143	0xbdb8f36b	-0.09030803
144	0xbdd59381	-0.10428525
145	0x3d96549f	0.07340359
146	0x3cb841b9	0.022492277
147	0xbe315e7b	-0.17321198
148	0x3bc9b98f	0.0061561535
149	0xbe140ecf	-0.14458774
150	0xbde505b5	-0.11182729
151	0xbe0d21e0	-0.13782454
152	0xbd6e324e	-0.058153443
153	0xbda3f798	-0.08006209
154	0xbcb55237	-0.02213393
155	0x3d85dcf7	0.06536286
156	0x3dabb135	0.08383409
157	0x3e21ac0a	0.15788284
158	0xbe364a76	-0.17801842
159	0xbe0d0991	-0.1377318
160	0x3e20114b	0.15631597
161	0xbd0d60ba	-0.034516074
162	0x3de5b37d	0.11215875
163	0xbda17f3c	-0.07885596
164	0xbdd6d2e9	-0.10489447
165	0x3e1f3cbd	0.15550514
166	0x3d400430	0.046878994
167	0xbdba1642	-0.090862766
168	0x3d967897	0.073472194
169	0xbdfadae4	-0.12248781
170	0xbd7e2e9e	-0.062056176
171	0xbd9fe7e0	-0.078078985
172	0x3b5df82e	0.003386985
173	0x390798e2	0.00012931557
174	0x3d321be3	0.043483626
175	0x3bc2d7b2	0.005946123
176	0x3db50047	0.088379435
177	0xbd631ac4	-0.055445448
178	0x3d700db5	0.058606822
179	0xbc6450ec	-0.013935309
180	0x3cbd3159	0.02309482
181	0xbd2ade2c	-0.041715786
182	0x3e1e34e7	0.15449868
183	0x3e1865eb	0.14882629
184	0xbd9cedd6	-0.07662551
185	0x3d684224	0.0567037
186	0x3d7f0411	0.062259737
187	0xbcdce919	-0.026966618
188	0xbd382624	-0.04495825
189	0x3d8bc2b2	0.068242446
190	0xbce2cda5	-0.02768595
191	0xbe07b05b	-0.13250868
192	0xbcb9795f	-0.022640882
193	0xbd34568a	-0.044027843
194	0x3e321a3b	0.17392819
195	0x3d37995f	0.044824
196	0x3deaaf19	0.114591785
197	0xbc36e3ca	-0.011162708
198	0x3d221799	0.039573286
199	0x39946b78	0.0002830883
200	0xbd8dc61a	-0.069225505
201	0x3d6c77ad	0.05773132
202	0xbd46b92f	-0.04851645
203	0xbe345cb3	-0.17613487
204	0x3c82377d	0.0158956
205	0xbe386192	-0.1800597
206	0x3db68ce7	0.08913594
207	0xbe3a91cd	-0.18219681
208	0x3c450cdb	0.012026991
209	0xbbc41fa2	-0.0059852162
210	0xbc7adbc9	-0.01531119
211	0xbe27a402	-0.16371158
212	0xbe2948ae	-0.16531631
213	0xbde65558	-0.11246747
214	0x3c62995d	0.01383051
215	0xbc665040	-0.014057219
216	0x3d5b9818	0.053611845
217	0x3c98e326	0.018663
218	0xbd504b0a	-0.050852813
219	0xbd612bf4	-0.054973558
220	0x3cdf406a	0.027252395
221	0x3d197e2d	0.037473846
222	0xbdb85ce3	-0.09002092
223	0xbe043b01	-0.12913133
224	0x3da7fb7d	0.082022645
225	0x3e34359e	0.17598578
226	0xbd156ded	-0.036481787
227	0xbe1e727d	-0.15473361
228	0xbd0e6be9	-0.03477088
229	0x3dd22ba3	0.10262229
230	0x3dd6601f	0.104675524
231	0xbd23b736	-0.039969645
232	0x3c4681ca	0.012115905
233	0xbb3a5e3e	-0.002843752
234	0xbdc8f9e1	-0.098132856
235	0x3d26b8e2	0.04070366
236	0x3d357a85	0.044306297
237	0xbd1cfbb0	-0.038325965
238	0x3d421ecd	0.047392655
239	0x3c2027da	0.009775126
240	0x3e2548d3	0.16141061
241	0x3ceca76c	0.028888427
242	0xbd09b73c	-0.03362201
243	0xbd8cd93e	-0.06877373
244	0xbe14efd6	-0.14544615
245	0xbb47971c	-0.0030455058
246	0x3d4c370c	0.049857184
247	0xbcc02a6f	-0.023457734
248	0xbda29999	-0.07939453
249	0xbe17552f	-0.14778589
250	0xbe144b26	-0.14481792
251	0xbd4b838a	-0.049685992
252	0xbdb8e245	-0.090275325
253	0xbcda4079	-0.026642071
254	0x3c7755f9	0.015096181
255	0xbdb2795d	-0.087145545

bias f4 [16]
0	0xbe033b29	-0.12815537
1	0xbd98629e	-0.07440685
2	0x3cdbdc45	0.026838431
3	0xbe1bc31a	-0.15211144
4	0xbc390230	-0.011292025
5	0xbe067d21	-0.1313367
6	0xbd2ecd16	-0.042676054
7	0xbe356546	-0.17714414
8	0x3d048742	0.032355554
9	0xbe1a7bed	-0.15086336
10	0xbe0660b6	-0.1312283
11	0xbe3d6ccd	-0.18498535
12	0xbddad854	-0.106857926
13	0x3d0829f1	0.033243123
14	0x3b864919	0.0040980694
15	0x3c82d408	0.015970245
