util/save/model_save-DDPG-actor.pt (torch, 7007 bytes, 4 tensors)

weight f4 [64, 1]
0	0x3d91baad	0.07115684
1	0x3f636ee2	0.8884107
2	0xbd166f61	-0.036727313
3	0xbf148afe	-0.58024585
4	0xbf4327d9	-0.7623268
5	0xbf4aebb2	-0.7926589
6	0xbea08ff7	-0.31359836
7	0x3f3917d3	0.7230198
8	0x3f0444ff	0.5166778
9	0x3ef73a94	0.4828688
10	0x3ea67d27	0.3251736
11	0x3f4b8488	0.794991
12	0x3f4cd79d	0.800165
13	0x3ea2f652	0.31828552
14	0xbec51599	-0.3849304
15	0x3f5f3654	0.87192273
16	0x3f4c644b	0.79840535
17	0x3d97724f	0.073948495
18	0xbdebca19	-0.115131564
19	0x3f1ca691	0.6119166
20	0x3f059ed6	0.5219549
21	0x3eb1894b	0.3467506
22	0x3ea31f3a	0.3185976
23	0x3e9bddcc	0.30442655
24	0x3efbb7f6	0.4916379
25	0xbe9e7870	-0.30951262
26	0x3ecaf8dc	0.3964299
27	0xbe1e18a6	-0.1543909
28	0xbe45e961	-0.19327308
29	0xbf4fd454	-0.8118336
30	0x3f3db337	0.74101585
31	0x3eaa3687	0.33244726
32	0xbf15a3fd	-0.5845335
33	0xbf3f8764	-0.74815965
34	0xbf58e90b	-0.84730595
35	0x3f1c678b	0.61095494
36	0x3f4d25a2	0.8013555
37	0xbf4baf37	-0.7956423
38	0xbf8994ba	-1.0748513
39	0x3f376b04	0.7164767
40	0xbefcc385	-0.4936792
41	0x3f479cbb	0.77973527
42	0x3ee884ca	0.4541381
43	0xbf507035	-0.81421214
44	0x3f1d38d5	0.61414844
45	0x3ebd8275	0.37013593
46	0xbf3b8e8b	-0.7326438
47	0x3e85a06f	0.26098964
48	0xbec59630	-0.38591146
49	0x3f102c1b	0.563173
50	0x3f02f23f	0.5115089
51	0x3f0dbefa	0.5536953
52	0x3f817459	1.0113631
53	0x3ec3eb82	0.38265616
54	0xbf306cc0	-0.6891594
55	0xbeeb6938	-0.45978713
56	0x3a7658b1	0.00093973713
57	0x3f088060	0.53320885
58	0x3f729e11	0.9477244
59	0x3f63d9b1	0.89004046
60	0x3f57b0e5	0.84254295
61	0x3f5bf340	0.85918045
62	0xbf0dcb77	-0.5538859
63	0x3ea0910a	0.31360656

bias f4 [64]
0	0x3f670298	0.9023833
1	0x3e8aa0d0	0.27075815
2	0xbf268927	-0.6505303
3	0x3e26938c	0.16267222
4	0xbf7d0e08	-0.98849535
5	0xbf056377	-0.52104896
6	0xbf703a27	-0.93838733
7	0xbea3715c	-0.31922424
8	0x3ed299bb	0.41132912
9	0x3f828f4a	1.0199978
10	0xbf48d3ee	-0.7844838
11	0x3f790fbe	0.97289646
12	0x3e816f8b	0.25280413
13	0x3f1aa782	0.60411847
14	0x3e558890	0.20852876
15	0x3f6ddf72	0.92919075
16	0xbf3bb82a	-0.7332789
17	0xbe80f37b	-0.2518576
18	0xbf8e170f	-1.1100787
19	0x3f0e6494	0.5562222
20	0x3ec8630a	0.3913806
21	0xbe0a3275	-0.1349581
22	0xbeae4da6	-0.34043616
23	0xbed28d44	-0.41123402
24	0x3ddf3126	0.10898046
25	0x3f388da0	0.720911
26	0x3f398d12	0.7248088
27	0xbed39fb1	-0.41332772
28	0xbe60df74	-0.2196024
29	0xbf71b5db	-0.94418114
30	0x3f7d8531	0.9903136
31	0xbf43179e	-0.7620791
32	0xbd3eb4b7	-0.04655906
33	0xbec56bae	-0.38558716
34	0x3da5cd32	0.080957785
35	0x3df1b881	0.118027695
36	0x3edf90ef	0.43665263
37	0x3dd52f55	0.104094185
38	0x3f0f6db7	0.56026787
39	0xbf01cfb5	-0.5070756
40	0xbf572181	-0.840355
41	0x3d9cc296	0.07654302
42	0x3ecc5be0	0.39913845
43	0x3f309326	0.6897453
44	0x3f6e0118	0.9297042
45	0x3ee23769	0.441829
46	0xbe72d76d	-0.23714991
47	0x3f0cf9aa	0.5506846
48	0xbea18c5c	-0.31552398
49	0xbebb8f5a	-0.36632806
50	0xbf65d8bb	-0.8978383
51	0x3d8f0cf7	0.06984895
52	0x3e0db3b8	0.13838089
53	0xbf4d3075	-0.80152065
54	0xbf89477f	-1.0724944
55	0xbf04ac55	-0.5182546
56	0x3daf77d0	0.08567774
57	0xbe032a42	-0.12809089
58	0x3f2a6dda	0.6657387
59	0x3f3b487e	0.7315749
60	0x3f77c6af	0.9678754
61	0xbec277f1	-0.37982133
62	0xbf3c09aa	-0.73452246
63	0xbe90f710	-0.28313494

weight f4 [16, 64]
0	0xbe1403a6	-0.14454517
1	0xbd720176	-0.059083425
2	0xbd076a73	-0.033060502
3	0xbd219c88	-0.03945592
4	0xbc8b07a6	-0.01697142
5	0x3e311741	0.17294027
6	0x3e211aba	0.15732852
7	0x3c92d585	0.01792408
8	0xbc3a8276	-0.011383643
9	0x3c72636d	0.014794213
10	0xbb994ad0	-0.004678108
11	0xbd046fb5	-0.032333095
12	0xbc8aacbc	-0.01692807
13	0xbe4436fa	-0.19161597
14	0x3dd1a083	0.10235693
15	0xbd016833	-0.031593513
16	0xbd19e74a	-0.03757409
17	0x3cb37c07	0.021909727
18	0x3dc8deb3	0.098081015
19	0xbdc24505	-0.09485821
20	0x3d10c16a	0.035340704
21	0xbd453ad1	-0.048151795
22	0xbe2294d1	-0.15877081
23	0x3d02d469	0.03194085
24	0xbda1ec49	-0.07906396
25	0xbd4e0b51	-0.05030376
26	0x3d30a665	0.043127436
27	0x3e472d78	0.19450939
28	0x3dd42d37	0.103601865
29	0x3d8554e9	0.06510336
30	0x3cf654b6	0.03006969
31	0xbe1bb78c	-0.15206736
32	0x3e262d6e	0.16228268
33	0xbd45abb0	-0.048259437
34	0xbaccc7d7	-0.0015623522
35	0xbdfef979	-0.12449927
36	0x3c559d0c	0.013037931
37	0x3d1b206d	0.03787272
38	0x3d81949f	0.06327175
39	0xbd1e1f29	-0.038603935
40	0x3da2ea62	0.07954861
41	0xbe18d7ed	-0.14926119
42	0xbd30e7eb	-0.043189924
43	0x3dd39bd8	0.10332459
44	0xbd89e4d0	-0.06733096
45	0xbda416c5	-0.080121554
46	0xb9b03075	-0.0003360544
47	0xbe1a364c	-0.15059775
48	0x3d2b7f0c	0.04186921
49	0xbd593ef6	-0.05303856
50	0x3cab2618	0.020892188
51	0xbe02bb86	-0.12766847
52	0xbda40285	-0.08008293
53	0xbc75994c	-0.014990162
54	0x3e0c384b	0.13693349
55	0x3d8a0f53	0.06741204
56	0xbcc55986	-0.02409054
57	0xbca8625b	-0.020554712
58	0xbe3d71a1	-0.18500377
59	0x3d0ee145	0.034882803
60	0x3bcc9890	0.006243773
61	0xbd9d0062	-0.07666089
62	0x3e2da452	0.16957214
63	0x3c76fec0	0.015075386
64	0xbd94afca	-0.072600916
65	0xbd3dee9b	-0.04637013
66	0x3c5690f2	0.013096081
67	0x3df7202f	0.120666854
68	0x3dde1ce9	0.10845358
69	0x3ce8a7c8	0.028400317
70	0xbd2830e1	-0.04106224
71	0xbdaf352f	-0.08555066
72	0xbd9df0d2	-0.077119485
73	0xbc9d5345	-0.019204745
74	0xbd959148	-0.07303101
75	0xbe2b2d19	-0.16716422
76	0xbdf2cd67	-0.11855584
77	0xbd907b08	-0.07054716
78	0x3d9fbab3	0.07799282
79	0xbde78c00	-0.11306
80	0x3d4a9cb1	0.04946584
81	0xbdad6de5	-0.08468226
82	0x3e2adc2d	0.16685553
83	0xbe26a267	-0.16272889
84	0x3d463f70	0.048400342
85	0x3c404cda	0.011737073
86	0xbe255f03	-0.16149525
87	0xbde950b4	-0.11392346
88	0x3cf7554a	0.030192036
89	0xbb52071f	-0.0032047702
90	0xbc8fa553	-0.017534887
91	0xbd2e08dc	-0.042488918
92	0x3e211871	0.1573198
93	0x3d9964a4	0.07489899
94	0xbb60064d	-0.0034183443
95	0x3d1d94b5	0.038471896
96	0x3d130bf6	0.03590008
97	0x3d4c29db	0.049844604
98	0x3d964d77	0.07338994
99	0xbe1c4c2a	-0.1526343
100	0xbe211963	-0.1573234
101	0xbc0b166d	-0.008489233
102	0xbc1f8ea4	-0.009738598
103	0x3cc1488b	0.023594161
104	0x3d0fef2c	0.0351402
105	0xb99c8748	-0.0002985543
106	0xbd1086f4	-0.03528495
107	0x3dbddf47	0.092711024
108	0xbe1bc18d	-0.15210553
109	0xbdb8191b	-0.089891635
110	0x3e0ceaf8	0.13761508
111	0x3be0cefd	0.0068606124
112	0x3d078095	0.03308161
113	0xbe212a25	-0.15738733
114	0xbddffd2c	-0.109369606
115	0x3ce1187b	0.027477494
116	0xbdccf7b4	-0.10008183
117	0x3d7c2314	0.06155689
118	0x3df29448	0.11844689
119	0xbd4deeea	-0.050276674
120	0xbd969479	-0.07352538
121	0xbe2fb697	-0.17159496
122	0x3c805034	0.015663244
123	0xbcc66a69	-0.024220662
124	0xbe3759d8	-0.17905366
125	0x3d2cc55b	0.0421804
126	0x3dd7030e	0.104986295
127	0xbc975fac	-0.018478237
128	0xbe3b12b8	-0.1826886
129	0xbd93d4fe	-0.072183594
130	0x3dfc5bb5	0.12322179
131	0xbd9c7ae8	-0.0764063
132	0x3d9a65e7	0.075389676
133	0x3e121d1c	0.14268917
134	0x3e229d11	0.15880229
135	0xbdec68ae	-0.115434036
136	0xbbf75bfe	-0.007548808
137	0xbcb0af2b	-0.021567902
138	0x3cc4fb33	0.024045562
139	0xbdd6f337	-0.10495608
140	0xbca55eb5	-0.020186761
141	0x3c7097e2	0.014684649
142	0x3e09a290	0.13440919
143	0xbdba107c	-0.090851754
144	0xbdd5b89e	-0.104356036
145	0x3d969e35	0.07354394
146	0x3cbcca8a	0.023045797
147	0xbe31da0d	-0.17368336
148	0x3bbbdff7	0.005733486
149	0xbe143d52	-0.14476517
150	0xbde52551	-0.11188758
151	0xbe0d2601	-0.13784029
152	0xbd6f83cf	-0.05847531
153	0xbda43ec4	-0.08019784
154	0xbcb964f1	-0.02263114
155	0x3d86a445	0.06574301
156	0x3dac4ffc	0.08413693
157	0x3e223aeb	0.15842788
158	0xbe36dab3	-0.17856865
159	0xbe0ce432	-0.13758925
160	0x3e206317	0.156628
161	0xbd0b9964	-0.03408183
162	0x3de64cda	0.11245127
163	0xbda2320e	-0.079197034
164	0xbdd7be45	-0.10534338
165	0x3e1f8625	0.15578516
166	0x3d40acea	0.047039904
167	0xbdba5942	-0.09099056
168	0x3d978b13	0.07399573
169	0xbdfb8db5	-0.12282888
170	0xbd7fe510	-0.06247431
171	0xbd9fb9d5	-0.077991165
172	0x3b3a855a	0.0028460831
173	0xb9998efc	-0.00029288966
174	0x3d33b4db	0.04387365
175	0x3bb46939	0.0055057076
176	0x3db5c8a4	0.0887616
177	0xbd63b097	-0.05558833
178	0x3d707b1b	0.058711153
179	0xbc6984ee	-0.014252884
180	0x3cba2960	0.022724807
181	0xbd2a53dc	-0.04158388
182	0x3e1ec778	0.15505779
183	0x3e18dcb0	0.14927936
184	0xbd9d33f3	-0.07675924
185	0x3d674ac3	0.056467783
186	0x3d7cf4fa	0.061757065
187	0xbce11f1d	-0.027480656
188	0xbd3a6588	-0.045506984
189	0x3d8b5cd5	0.06804816
190	0xbcdea5c1	-0.027178647
191	0xbe07c7b7	-0.13259779
192	0xbcbc8401	-0.023012163
193	0xbd3563d2	-0.04428465
194	0x3e328730	0.17434382
195	0x3d384a63	0.044992816
196	0x3deb6713	0.11494269
197	0xbc31fcbb	-0.010863478
198	0x3d2383a2	0.039920457
199	0x39183d68	0.00014518725
200	0xbd8e59d1	-0.06950725
201	0x3d6b051f	0.05737793
202	0xbd46fc97	-0.048580732
203	0xbe34b863	-0.17648463
204	0x3c8023c7	0.01564206
205	0xbe38b318	-0.18037069
206	0x3db6e069	0.089295216
207	0xbe3aec8e	-0.18254301
208	0x3c43e0a3	0.011955413
209	0xbbc78d5c	-0.0060898494
210	0xbc74de5c	-0.014945593
211	0xbe27f3c7	-0.16401587
212	0xbe2991ad	-0.16559477
213	0xbde6b0a1	-0.11264158
214	0x3c606ad3	0.013697344
215	0xbc6847fc	-0.014177319
216	0x3d5aac53	0.053386997
217	0x3c997abf	0.018735288
218	0xbd51a0be	-0.051178686
219	0xbd60006e	-0.05468791
220	0x3ce14976	0.02750085
221	0x3d1aea6d	0.037821222
222	0xbdb914fb	-0.09037205
223	0xbe044ca3	-0.1291986
224	0x3da86aab	0.0822347
225	0x3e347e59	0.17626323
226	0xbd14ab35	-0.03629609
227	0xbe1eadee	-0.15496036
228	0xbd0f97b9	-0.035056803
229	0x3dd28a51	0.10280288
230	0x3dd69260	0.104771376
231	0xbd2424bb	-0.04007409
232	0x3c4c0c07	0.012454039
233	0xbb48ac94	-0.0030620443
234	0xbdc98c87	-0.098412566
235	0x3d270987	0.04078057
236	0x3d340f55	0.043959934
237	0xbd1e2886	-0.038612865
238	0x3d43255d	0.047643054
239	0x3c1b2d4c	0.009471249
240	0x3e258e50	0.16167569
241	0x3ceb98bd	0.028759355
242	0xbd09ee90	-0.033674777
243	0xbd8d4b21	-0.06899095
244	0xbe152c61	-0.1456771
245	0xbb4bb659	-0.003108403
246	0x3d4dad70	0.05021423
247	0xbcbdb7d5	-0.023158947
248	0xbda2a99e	-0.07942508
249	0xbe17835d	-0.14796205
250	0xbe149ec6	-0.14513692
251	0xbd4cda1c	-0.050012693
252	0xbdb99968	-0.09062463
253	0xbcdb49ae	-0.026768532
254	0x3c7cb248	0.015423365
255	0xbdb2c51b	-0.08729001

bias f4 [16]
0	0xbe03b65e	-0.12862536
1	0xbd995fbc	-0.07488963
2	0x3cd6cdf2	0.02622125
3	0xbe1c2a0f	-0.15250419
4	0xbc3cebde	-0.0115308445
5	0xbe06daa4	-0.13169342
6	0xbd302c6e	-0.04301112
7	0xbe35c70f	-0.17751716
8	0x3d034673	0.032049607
9	0xbe1ad166	-0.15118942
10	0xbe0703a4	-0.13184983
11	0xbe3de0cd	-0.18542786
12	0xbddbb36b	-0.10727581
13	0x3d079bd2	0.033107586
14	0x3b6d29e3	0.0036188297
15	0x3c80c5a7	0.015719248
